models/model.pth (torch, 9086 bytes, 13 tensors)

0.weight f4 [32, 13]
00000000: 251c 5e3e effc fa3c 4876 343d 234d b8bd
00000010: caa7 04be dc5a 49bc bc38 21bd f022 12be
00000020: 9c94 f73e 19ef 443e a392 173e 10fe 70bc
00000030: 1df0 80be 0e77 233e 98c4 0dbe 2aad 33be
00000040: 9689 5c3d c812 e93d a748 cabc 9b8b 87bb
00000050: 4a91 e93d 58b5 e2be 9511 1e3e 03fd 823d
00000060: a5ac 603e b982 7cbe 02fc 30be a01e 903e
00000070: 2e87 153d 79f5 17be ea81 99bd 4b5a 97be
00000080: e165 b5bd 8235 ef3d 63a7 773e 7c9b 913d
00000090: b95d 0cbe 1a1c 86bd f429 dcbd f4ed a6bc
000000a0: 6b89 e93b 4544 193c 95e8 87bc 698f ba3c
000000b0: ee5d 753f 5cd6 efbc 2035 a5ba 409f 433d
000000c0: 9c19 493d a50c 53bd 1e25 f63c 5de2 2cbc
000000d0: 81e7 84bd df8f b13d bb35 19be ba6c 0abf
000000e0: 1765 d0bd 6ed3 053f 3b44 d4bd 3221 e13d
000000f0: 9e5e 0bbd 75dc 673e dbc5 a43e 7d24 41bd
00000100: 6b03 92bd 327e 583d a29f ea3c 5766 15be
00000110: 9902 18bf 4204 3b3c b2cf adbe cac8 91be
00000120: 028b 7e3e 4823 7cbd cd65 1a3e 57ff ba3c
00000130: 5c9e 113e d3e2 90bc b302 bfbe 3079 513d
00000140: caf1 13be 0d73 113e 9459 8fbe 2a32 003e
00000150: 30de 9a3d af99 013e 16ee 54be 21fc c2be
00000160: 4ad7 923d 341e c03d 7ae4 d3bd 938c 0bbd
00000170: 0af1 8fbd a26a 0bbe 6f24 eabe 474e 83be
00000180: 2d8a 3cbd 0f8a 5e3b fe09 bcbd b3dd dabc
00000190: fcfa f3bd a9bf 423e 7efa fabd fc5b a73e
000001a0: 5ab5 733c 2129 fcba 3ad1 693a 8f3d a1be
000001b0: 603b 69bc b49a f8bc a25e e6be aa5e 863c
000001c0: 4217 42bc 0bdc 293e 1204 88bc 3a38 373b
000001d0: c909 db3d 27b7 cfbc 6204 b53c d8ef 783d
000001e0: f15b 14bd 074b 13be cf51 f33b 5385 a93d
000001f0: c6ad 36bd df73 dc3d 76ad c3bb f08f ab3d
00000200: 2c06 3e3b a59d f43e 0d2c 2fbe 24d5 923d
00000210: 9d50 8d3e 50cc 77bd 5815 33be 6b15 c63e
00000220: 731f 413e c97b 1b3e de9c 86be bb1e 86be
00000230: fe8f 123e d8a7 66bd f065 01be be4b 62bd
00000240: 75ab 25bb c036 323e 0021 0cbe 5173 433d
00000250: a09c db3a d0eb ce3d eaed 893e 04b2 87be
00000260: 07d7 8a3a df52 c93d f4f2 3dbe c737 0abe
00000270: 5760 c63c a940 81be 6216 1fbe 23c8 823e
00000280: 85bf f43d cf4a a9be ee4f abbd a01a 65be
00000290: 5b11 a1bc 0189 7e3e 3005 78be 679f a3bc
000002a0: 82bd 3abe ae6f bc3b b4f8 ad3b 0447 613b
000002b0: 9b3c 173e ba9b 953a 9e7b bc3e 6c63 2cbd
000002c0: c2dd 0b3c 4348 1bbc 59a9 bd3e 6553 1e3b
000002d0: 9c70 8f3b 8444 463e 6deb 06be 8101 11bd
000002e0: a85d 123b e53f a83d b7fc 07be a946 0a3d
000002f0: 893b a23e e250 c03e 8235 bdbe d062 263d
00000300: f45b babc 75d4 08bd 8471 3bbe 39d4 163e
00000310: 770c 0fbd 6bd5 2dbe abfe 983d 4e7a 333e
00000320: f546 e2be c90e ac3d 04f3 273e e914 f63d
00000330: 9836 4abe a7e5 56be 586e 28be 8c7b c73d
00000340: 068b b23c d472 80be 2281 743c 965a 1d3e
00000350: 037d 4b3e b03e b83e 0155 753d d99b 153d
00000360: e21c d0bd be7d 82be b553 16be 5931 65bd
00000370: e6a1 623d b3bc 9fbe 2d91 e1bd eb2b 1bbe
00000380: ab84 d03d 0e69 03bd ba99 bc3d 044e 6ebe
00000390: b6a8 84be 7dc2 013d 5cbf 0ebe 5fc6 4bbc
000003a0: 2505 90be a89f 2ebe e068 08bd 9737 d03d
000003b0: fb39 263d 5089 ebba dd42 b73b b5ff 483e
000003c0: 0108 e93c e89c 5b3e 9181 633d 4946 b1be
000003d0: 9158 cabd 88fd c13c 96e6 1abd bec5 0a3e
000003e0: d92d 1b3d b0cd 07bd 1678 013e c8bf 65be
000003f0: 47c7 9bbe 0f23 bcbd 1ea7 9a3d 4bbd 103f
0.21690424 0.030638186 0.044058114 -0.08999088 -0.12954631 -0.012289729 -0.039360747 -0.1427114
0.48355567 0.19231834 0.14802031 -0.014709011 -0.25183192 0.15963385 -0.13844526 -0.17546526
0.05384215 0.11380535 -0.024692846 -0.0041365153 0.11404665 -0.4427898 0.15436395 0.063959144
0.21940859 -0.24659242 -0.17283633 0.28148365 0.03650587 -0.14839734 -0.07495482 -0.29561076
-0.088573225 0.11680128 0.24184947 0.071097344 -0.13707627 -0.06548329 -0.107501894 -0.020377137
0.007126977 0.009354656 -0.016590396 0.022773461 0.9584645 -0.02927702 -0.0012604333 0.047759295
0.04909669 -0.05152573 0.030046996 -0.010552016 -0.06489468 0.08670019 -0.14961903 -0.54072154
-0.10175531 0.5227574 -0.103645764 0.1099266 -0.03402578 0.22642691 0.32182202 -0.04715394
-0.07129558 0.052854724 0.028640572 -0.14589821 -0.59378964 0.011414589 -0.3394752 -0.28473502
0.24857715 -0.061557084 0.15077896 0.022826834 0.14220566 -0.017686283 -0.37306747 0.051140964
-0.14447704 0.14204045 -0.2799803 0.12519136 0.0756191 0.12656282 -0.20793948 -0.38082984
0.071699694 0.09380761 -0.10346313 -0.03406961 -0.070283964 -0.13614896 -0.45730922 -0.25645658
-0.046030212 0.00339568 -0.09181593 -0.026717043 -0.11913106 0.19018425 -0.12254809 0.32687366
0.014874781 -0.0019238332 0.0008919422 -0.31492278 -0.0142353475 -0.030347206 -0.44994074 0.016402561
-0.011846365 0.16587846 -0.016603503 0.0027957098 0.10695226 -0.025355889 0.022096816 0.060775608
-0.036220495 -0.1438409 0.007425524 0.08277383 -0.044599317 0.10764288 -0.005971606 0.08377063
0.0028995378 0.47776523 -0.17106648 0.071695596 0.27600566 -0.060497582 -0.1748861 0.38688216
0.18859653 0.15183939 -0.26291555 -0.2619532 0.14312741 -0.056312412 -0.12636542 -0.055248015
-0.0025279198 0.17403698 -0.13684464 0.047717396 0.0016755052 0.101035714 0.26939327 -0.26503003
0.0010592648 0.098302595 -0.1854971 -0.1349784 0.02421586 -0.25244644 -0.15535882 0.25543317
0.11950592 -0.33064887 -0.08364855 -0.22373438 -0.019661596 0.2485695 -0.24220729 -0.01997347
-0.18236354 0.005750618 0.0053091887 0.0034374604 0.14769213 0.0011414208 0.36813062 -0.042087004
0.008536758 -0.009477678 0.37043265 0.0024158594 0.0043774378 0.19362074 -0.13175745 -0.035401825
0.0022333656 0.08215312 -0.13279997 0.033758793 0.31686047 0.3756171 -0.36954886 0.04062158
-0.022748925 -0.03340574 -0.18305022 0.14729394 -0.034923997 -0.16975944 0.07470449 0.17527124
-0.4419476 0.084012575 0.16401297 0.12015707 -0.19747388 -0.20986043 -0.16448343 0.097403616
0.021794807 -0.25087607 0.014923366 0.15366587 0.19871907 0.35985327 0.05989552 0.03652558
-0.10161759 -0.2548656 -0.14680369 -0.055955265 0.05533018 -0.31198654 -0.11014018 -0.15153472
0.101815544 -0.03208261 0.092090085 -0.23271948 -0.25909966 0.03167962 -0.13940185 -0.012437432
-0.28128925 -0.17053092 -0.03330314 0.10166853 0.04058264 -0.001797 0.0055926875 0.19628794
0.0284462 0.21446574 0.055543486 -0.34623936 -0.09880174 0.023680463 -0.03781756 0.13551995
0.03788552 -0.033155143 0.12643465 -0.2243644 -0.30425474 -0.091863744 0.07551406 0.5653884

0.bias f4 [32]
00000000: 91fe 9abe 6a8f 5a3e 6d93 4a3e c74d a0be
00000010: 0d35 d13c 95f0 e9bd e143 36be a2de 0f3d
00000020: 46c3 01bf 4cf6 ec3e 1b86 403e 9e7c 943e
00000030: 438c 59bc dec2 e0be cb33 25be 88b8 b5be
00000040: 59e9 ddbd 7b8e efbb ac61 38be 1114 a93d
00000050: d47d 38be e11c a53c a259 b53c c0b7 79bd
00000060: b6e9 203c fc1a 96be cb03 883d 5031 223b
00000070: 7cd0 073d 6964 c3be a6ca 983e 80a0 d43e
-0.30272344 0.2134377 0.19782801 -0.3130934 0.025537992 -0.114228405 -0.17799331 0.03512443
-0.5068859 0.4628166 0.18801157 0.29001325 -0.01327807 -0.43898672 -0.16133039 -0.3549235
-0.10835523 -0.007310686 -0.18006009 0.082557805 -0.1801675 0.020155372 0.022137467 -0.060966253
0.009821346 -0.29317462 0.066413485 0.002474863 0.03315781 -0.38162544 0.29842108 0.41528702

2.weight f4 [32]
00000000: 82a5 803f 2be1 733f 5997 763f 3210 a33f
00000010: f98f 7b3f 5f52 603f 769c 673f 556a 773f
00000020: e74c a33f c907 923f cd0d 773f b308 5c3f
00000030: 3892 603f 2368 a03f 5c87 543f 2175 813f
00000040: 9a73 723f de29 593f be39 6d3f cf8a 613f
00000050: 8761 973f bf05 603f c3ef 663f aedd 823f
00000060: 1f85 7c3f e5d8 753f 1a4a 763f 8c4e 803f
00000070: b876 713f c7bd 783f 218e 823f 0ea3 603f
1.0050509 0.95265454 0.9632469 1.2739317 0.9826656 0.8762569 0.90473115 0.96646625
1.2757844 1.1408626 0.96505433 0.85950774 0.8772311 1.253178 0.8301904 1.011387
0.94707644 0.8482951 0.9266623 0.8810243 1.1826638 0.8750877 0.902096 1.0223901
0.98640627 0.9603408 0.9620682 1.0023971 0.94321775 0.9716458 1.0199624 0.877488

2.bias f4 [32]
00000000: 0f5e 28be 642a 0ebe d298 903d 800b 46be
00000010: d21d 77be 89c4 0e3e 2261 623d e7a5 ce3c
00000020: 9fe8 653d 9830 1dbc b750 833d 13f1 60be
00000030: b59a 413d ccf8 43bd 14af 44be 5be7 87bd
00000040: 2c71 9b3d a6cd 393e 91c6 163e b057 3c3e
00000050: 6614 123d 9e7e 893e de98 17be 354b 343e
00000060: ced0 80be 422f 5bbd 0fbd 773d f753 653e
00000070: 4c2d fbbd e0b7 06bd 4be7 853d 5dad 173e
-0.1644213 -0.13883358 0.07060398 -0.19340324 -0.2413247 0.1394216 0.055268414 0.025225593
0.056130048 -0.009594105 0.064118795 -0.21966963 0.04726668 -0.047844693 -0.19207412 -0.066359244
0.07589945 0.18144855 0.14724185 0.18392825 0.035663985 0.26854414 -0.14804408 0.17606814
-0.25159305 -0.053511865 0.060483035 0.22395311 -0.12264499 -0.0328902 0.06538256 0.14812227

2.running_mean f4 [32]
00000000: 5e36 0a3e 3443 d23e 380e b13e 93c7 983e
00000010: 0f23 c03e 2db6 593e 2e90 463e dd08 7f3e
00000020: f423 3a3c dc1c 043f fc67 b53e 2a7b bd3e
00000030: a44b 6b3e 99e5 5a3d d840 483e fba6 093e
00000040: a62b 2c3e fc29 833e 5ed3 d03d 544d 9d3e
00000050: e363 593e b66c 993e e392 833e 76e4 483e
00000060: fdff 8a3e 30dd fd3d 4220 963e 5fe4 8b3e
00000070: 2031 4d3e fd37 b33d 589b 0c3f 9dce 083f
0.13497302 0.41066897 0.3458116 0.29839763 0.37526748 0.21260901 0.19390938 0.24905725
0.011361111 0.51606536 0.35430896 0.3700803 0.22978073 0.053441618 0.19555986 0.13442604
0.16813526 0.2561797 0.10196565 0.3072306 0.2122951 0.29965752 0.25698003 0.19618401
0.2714843 0.12395704 0.29321486 0.2732267 0.20038271 0.08750913 0.54924536 0.53440267

2.running_var f4 [32]
00000000: f028 b53d 024f a63e d9b4 223e 81c8 ba3d
00000010: d866 633e c464 d53d eb08 b23d 9532 cc3d
00000020: 524b 413b 067c 4a3e c217 273e 5027 0b3e
00000030: 129b bb3e 0a9b 9f3d 3aac eb3d acfd ff3d
00000040: 2fa2 413e c73c 083e 69d6 073d c059 783e
00000050: 6162 f43d 3755 283e afcf 0d3e 2eb1 a53d
00000060: 992e e83d 83fa 7e3d 6627 e93d 525d 1e3e
00000070: 3591 9c3d 2c68 ba3d 3279 a03e 590c b73e
0.08845699 0.32482153 0.158893 0.09120274 0.222072 0.1041961 0.08693107 0.09970585
0.0029494357 0.19773874 0.16317657 0.13589215 0.36641747 0.07793243 0.11507459 0.12499556
0.18909524 0.13304435 0.03316346 0.24252987 0.11932827 0.16438757 0.13848756 0.08090435
0.11337013 0.062250625 0.11384468 0.15465286 0.076448835 0.091019005 0.31342465 0.35751608

3.weight f4 [16, 32]
00000000: 607f 8bbe f8ff 063e 2cb6 0fbe 383a 3dbe
00000010: d9fe b8bd b7d4 a8bd 3045 ad3c 9cc6 913c
00000020: ea23 323e f6a9 883e 90f5 5a3d 3910 933c
00000030: bd85 ae3d 731c 523e e48f fa3c 925c 8b3d
00000040: 55a4 c63d 2526 dd3d bc24 2fbe 3176 4cbe
00000050: a11b 37be 3041 8ebd 2f7c 053e ebc8 543e
00000060: 140c 6d3e 21c6 50bd 6e0d 27be 7867 293d
00000070: 2383 5b3d fd5e f23a 2529 a03d 581e da3d
00000080: d9b4 583e 7d0f 67be 1b62 78bd 530a 653e
00000090: 04cb e4bd 0e94 6b3d 2ac3 be3d 529a 3f3b
000000a0: a397 7dbe 7ae0 4b3d 3ec8 633e f75a 04bd
000000b0: d568 003d 660a c73d 5aa2 dfbc 1be6 a8bc
000000c0: 2d33 21bd 25a0 20bc 99d2 1f3e 5986 3d3e
000000d0: 8120 043e 907f f3bd be01 a83d aa11 8d3c
000000e0: 17d4 a53d 8b45 9abd 4434 d3bd ed2b 1a3d
000000f0: 8f33 6d3d 20bf 8f3e 337a 743e aca2 22bd
00000100: 7229 683d f39b 953d fac5 af3d 6cbe 443e
00000110: f3b2 c63d 8e37 763e 73ea 09be 6c46 4bbe
00000120: f611 8b3e e4cf f3bc f083 67bd f662 163e
00000130: 6ae4 eabc 4e20 e13c 5729 8dbe 2cb2 0c3e
00000140: 0844 983d b49c 713d 9b14 963d fca0 90bd
00000150: 46ad afbd 7c79 64bc 86a9 e2bd e0f3 303d
00000160: b930 12ba 4d5a c63d 835a 413e 2f4f b7be
00000170: 549e d53d b74c c73d 6a81 683d c35a babd
00000180: 24fa 9cbd 0239 80bd f2e9 1abe 241d 683e
00000190: 677f cbbd af64 a43b c885 49bd 26a1 353e
000001a0: 9a34 95bb af14 313e c513 6d3b 120d e8bd
000001b0: c234 d03d 36ee 3d3e 8539 f4bd ee56 443e
000001c0: 0f94 243d 9353 c7be d308 bebe c0e6 ed3d
000001d0: 2888 6ebe 6e6c 0ebe 75a3 793d 72fb 8d3e
000001e0: f4cb b43d 1330 833e 0516 18be 3238 f53d
000001f0: 0831 26be 922e 82bd 6b43 13bd 5119 e93c
00000200: 25bf 0b3d bfa8 ea3d 4026 413e c94d 6a3e
00000210: 0258 d53d 7374 ebbd d201 1bbc 4580 0eba
00000220: 0b7c 1a3e 2176 00be ffa8 0f3e 2968 023e
00000230: cfcb 1c3d de5d 3f3e b153 963d a991 843e
00000240: c4ae 81be 3fb7 87bd 2c57 61be 23da 803c
00000250: ecc1 20bd 664c f53c 4069 513e 4f37 2abd
00000260: 9cdd 0cbc bee4 273e e8a9 59bd 3247 81be
00000270: b546 133d fad7 cfbb c686 883e 2cda 0f3d
00000280: 8758 923d d712 e0bd 9987 c63d 24a8 01bc
00000290: a504 42bd 214c 123e 7225 2c3d a5fc 023d
000002a0: f899 a03d 5ea2 153e a003 f2bc 498c e6bd
000002b0: 36d6 0fbe eef5 d93c 59d4 a53c 05d2 5f3d
000002c0: e11a bc3c 445b 71bd 7379 f93d 6d2a 223d
000002d0: ace9 28bf ccba 6cbe 0b63 e9bc 4aed 09be
000002e0: 1d70 0abd 97af 0e3e aa07 4bbe 743b d53d
000002f0: 0aba a63d 6ba8 45be a10a ddbb e97e afbe
00000300: 83ae 213d 9a3f 003d f56e 07be 0833 b2be
00000310: 405f f93c 27d7 e13d 4fb3 adbc e8f3 883e
00000320: cb51 fdbd f0ad 743e 7d44 da3d 7f30 e23d
00000330: 949c dabd c021 1c3e 6057 dd3d 7540 b03d
00000340: 0d23 6f3d ed17 22be 55b4 283e bc0b 083e
00000350: 863b 973e 3faf 303b 9446 1b3e 3e46 893e
00000360: ce40 1f3e 2415 193e 544c 1ebd b67d 98bd
00000370: 9e54 29be 3221 ad3a e6ea 73bd 144b 71bd
00000380: 231c 803d 66e4 95bd a9a5 003e c3bc 123d
00000390: 8235 60be dd20 dc3d 0fa9 b33d 3a5b dcbd
000003a0: 4a5b b23e ead5 9abd df21 50be a882 303d
000003b0: a33e 0bbe 52ad dbbd f796 333c 5caf 99be
000003c0: 5a06 9d3d ce77 3e3e e511 043d 9e44 2f3e
000003d0: abe3 52bd bac9 febd d69a 8dbe 196a 89bd
000003e0: db30 5cbe faab 063e fd2f 443e 6ac8 debd
000003f0: 2aa1 033c 65c5 1dbe 96ba 453d 6276 413d
-0.27245617 0.13183582 -0.14034337 -0.1847924 -0.09032983 -0.08243697 0.021151155 0.0177949
0.17396513 0.2669217 0.053456843 0.017952072 0.08521602 0.20518665 0.03058619 0.06804766
0.096993126 0.10798291 -0.17103857 -0.19966961 -0.17881633 -0.06946027 0.13035654 0.20779769
0.23149139 -0.0509702 -0.16313717 0.04135844 0.05359186 0.0018491443 0.07820348 0.10650319
0.21162738 -0.22564502 -0.060640436 0.2236722 -0.11171535 0.057514243 0.09314568 0.002923627
-0.24764876 0.049774624 0.22244355 -0.032313313 0.031349976 0.0971878 -0.027299095 -0.020617535
-0.039355446 -0.009803806 0.1560768 0.18508281 0.12903024 -0.11889565 0.08203457 0.017220337
0.080970936 -0.075327955 -0.10312703 0.037639547 0.0579105 0.28075504 0.2387474 -0.039705917
0.05668015 0.073051356 0.08582683 0.19213265 0.097021006 0.2404463 -0.13468342 -0.19851083
0.2716214 -0.029762216 -0.05652231 0.14686188 -0.02867337 0.027481224 -0.27570602 0.13739842
0.07434851 0.058987334 0.07328149 -0.07061955 -0.08577971 -0.01394498 -0.1106749 0.043201327
-0.0005576718 0.09685192 0.18882184 -0.358026 0.10430589 0.09731429 0.056764044 -0.09099343
-0.07664898 -0.062608734 -0.15128306 0.22667366 -0.099364094 0.005016885 -0.04919985 0.17737255
-0.0045533897 0.17293046 0.0036175114 -0.11330618 0.10166313 0.18547902 -0.119250335 0.19173786
0.040180262 -0.3893095 -0.37116107 0.11616278 -0.23294127 -0.1390855 0.0609469 0.277309
0.088279635 0.25622615 -0.1485215 0.11973609 -0.16229641 -0.06356539 -0.035952967 0.028454455
0.034117837 0.11457967 0.18862247 0.22881235 0.10417177 -0.1149682 -0.009460883 -0.0005435984
0.15086381 -0.12545063 0.1402931 0.12735046 0.038280305 0.18688151 0.073401816 0.2589238
-0.25328648 -0.06626748 -0.2200591 0.015729016 -0.03924744 0.029943656 0.20450306 -0.041556653
-0.008597758 0.16395852 -0.05314055 -0.2524963 0.035956103 -0.006342885 0.26665324 0.035120174
0.071457915 -0.109410934 0.09693832 -0.007913623 -0.04736771 0.14286853 0.042027898 0.03197922
0.07841867 0.1461272 -0.029542744 -0.11257226 -0.14046559 0.026606526 0.020242857 0.05464365
0.022962036 -0.05892493 0.12181368 0.03959124 -0.65981555 -0.23118132 -0.02848961 -0.13469425
-0.033798326 0.1393417 -0.19827142 0.104117304 0.08140953 -0.19302528 -0.006745652 -0.34276512
0.039473068 0.031310655 -0.1322592 -0.3480456 0.030440927 0.11027365 -0.021203665 0.26748586
-0.123691164 0.23894477 0.10657594 0.11044406 -0.10674396 0.1524725 0.10807681 0.08606044
0.058383036 -0.1582944 0.16475041 0.13285726 0.295376 0.0026959924 0.15163642 0.26811403
0.15552065 0.14949471 -0.03864701 -0.074458525 -0.16536185 0.0013208746 -0.05955019 -0.05890949
0.06255367 -0.07318954 0.12563194 0.03582455 -0.21895412 0.10748456 0.0877248 -0.107595876
0.34835273 -0.07560332 -0.20325421 0.043093354 -0.13598113 -0.107264176 0.010961286 -0.300166
0.07667227 0.1860039 0.032243628 0.17116019 -0.051486652 -0.1244082 -0.27657193 -0.0670969
-0.21503012 0.13151541 0.19158931 -0.1087807 0.00803403 -0.15407331 0.048273645 0.04723204

3.bias f4 [16]
00000000: f2fb 273e c1ac 4fbd d162 c2bd e6d5 063d
00000010: 232a 6bbe ec06 dcbd 9fd0 51bd 8768 803d
00000020: 2bfe febd 5e6b bd3b f474 c4bd 8db2 71bd
00000030: 0b26 553d 175b 8cbe e875 fdbe 0b69 bdbb
0.16404703 -0.05070186 -0.09491504 0.032918833 -0.22965293 -0.10743508 -0.051224347 0.06269937
-0.124508224 0.0057806214 -0.095926195 -0.05900817 0.052038234 -0.27413246 -0.49504018 -0.0057803444

5.weight f4 [16]
00000000: b7a4 9f3f 4b09 893f 514b 803f eb63 943f
00000010: 70df aa3f 2a0d a93f 505a a83f 8b44 933f
00000020: 4a45 8a3f cf2a a83f 2584 a33f 17bf 933f
00000030: ee7d 933f af98 893f 5be6 dd3f 9799 863f
1.2472142 1.0705961 1.0022985 1.1592993 1.3349438 1.3207142 1.3152561 1.1505293
1.0802395 1.3138064 1.2774702 1.1542691 1.1522806 1.074972 1.7335924 1.0515622

5.bias f4 [16]
00000000: aa4c cb3e f603 b8be b7a4 acbe 2b6b b43e
00000010: e3b7 bbbe 5586 e23e 4da3 cd3e 6df4 1cbf
00000020: b30c c2be f0e8 c83e cd89 dabe 6679 b23e
00000030: 163b abbe 2a4e c23e 5d76 d6be d7a2 a9be
0.39706928 -0.35940522 -0.33719417 0.35238013 -0.36663732 0.44243112 0.4016365 -0.61310464
-0.37900314 0.39240217 -0.4268326 0.34858245 -0.33443516 0.3795026 -0.4188718 -0.3313205

5.running_mean f4 [16]
00000000: f899 f23e dd07 af3e 22e7 7e3e 02fa e33e
00000010: 7cea ed3d 6444 943e 163a bb3e 6cb6 f93e
00000020: 60af 8d3e 7353 db3e b39a 813e 8cb7 c83e
00000030: bc5c d63e 28ff 3c3e 2a6a 833d f30b a53e
0.47383094 0.34185687 0.24892858 0.44526678 0.1161699 0.28958428 0.36567754 0.4877199
0.27672863 0.42837104 0.2531334 0.39202535 0.41867626 0.1845671 0.064167336 0.3223568

5.running_var f4 [16]
00000000: fcd5 a13e 354f 9c3e 4003 8b3e 6622 ae3e
00000010: 10ab fc3d 3de4 183e 9492 673e 269f d23e
00000020: fb3e 633e 7f1f bb3e 268a 483e 4ba7 6f3e
00000030: 79d3 c53e 5264 c33d ad45 883d 4985 583e
0.3160857 0.3052918 0.27150917 0.3401062 0.12337315 0.14930816 0.22614509 0.41137046
0.22191994 0.36547467 0.1958395 0.23403661 0.38637903 0.09540619 0.066539146 0.21144594

6.weight f4 [1, 16]
00000000: 0aae 35bf e58f e03e 687f cc3e fc0e 2dbf
00000010: 53b6 113f 14f3 5bbf 7c5c 54bf 9971 d83e
00000020: a5b1 ce3e 6b3e 67bf 249d f93e 6b00 3cbf
00000030: fba1 fb3e 674d b0be ab25 2b3f c1b0 d83e
-0.7096869 0.43859783 0.39940953 -0.6760099 0.5691883 -0.8591778 -0.8295362 0.42274168
0.40369907 -0.9032962 0.487527 -0.7343814 0.4914702 -0.34434053 0.6685435 0.42322353
